=== MODEL SETUP ===

preprocessing: True
classification: ternary
Twitter embeddings: True
Train set size: 50334
Test set size: 12284
Vocabulary size: 39905
epochs: 10
batch_size: 32
dropout: 0.5
====================

_________________________________________________________________
Layer (type)                 Output Shape              Param #   
=================================================================
main_input (InputLayer)      (None, 67)                0         
_________________________________________________________________
embedding_1 (Embedding)      (None, 67, 300)           11971500  
_________________________________________________________________
dropout_1 (Dropout)          (None, 67, 300)           0         
_________________________________________________________________
bidirectional_1 (Bidirection (None, 67, 300)           541200    
_________________________________________________________________
dropout_2 (Dropout)          (None, 67, 300)           0         
_________________________________________________________________
bidirectional_2 (Bidirection (None, 67, 300)           541200    
_________________________________________________________________
dropout_3 (Dropout)          (None, 67, 300)           0         
_________________________________________________________________
attention_1 (Attention)      (None, 300)               367       
_________________________________________________________________
dropout_4 (Dropout)          (None, 300)               0         
_________________________________________________________________
dense_1 (Dense)              (None, 3)                 903       
=================================================================
Total params: 13,055,170
Trainable params: 1,083,670
Non-trainable params: 11,971,500
_________________________________________________________________
              precision    recall  f1-score   support

    negative       0.34      0.91      0.49      3972
     neutral       0.55      0.15      0.24      5937
    positive       0.58      0.00      0.01      2375
…
